SCRIPT HAS STARTED RUNNING
this is the new one
Using device: cuda:0
Files already downloaded and verified
Files already downloaded and verified
generator
----------------------------------------------------------------
        Layer (type)               Output Shape         Param #
================================================================
            Conv2d-1           [-1, 32, 16, 16]             896
       BatchNorm2d-2           [-1, 32, 16, 16]              64
              ReLU-3           [-1, 32, 16, 16]               0
            Conv2d-4             [-1, 64, 8, 8]          18,496
       BatchNorm2d-5             [-1, 64, 8, 8]             128
              ReLU-6             [-1, 64, 8, 8]               0
            Conv2d-7            [-1, 128, 4, 4]          73,856
       BatchNorm2d-8            [-1, 128, 4, 4]             256
              ReLU-9            [-1, 128, 4, 4]               0
           Linear-10                 [-1, 2048]       4,196,352
           Linear-11                 [-1, 2048]       4,196,352
  ConvTranspose2d-12            [-1, 128, 8, 8]         262,272
      BatchNorm2d-13            [-1, 128, 8, 8]             256
             ReLU-14            [-1, 128, 8, 8]               0
  ConvTranspose2d-15           [-1, 64, 16, 16]         131,136
      BatchNorm2d-16           [-1, 64, 16, 16]             128
             ReLU-17           [-1, 64, 16, 16]               0
  ConvTranspose2d-18            [-1, 3, 32, 32]           3,075
             Tanh-19            [-1, 3, 32, 32]               0
================================================================
Total params: 8,883,267
Trainable params: 8,883,267
Non-trainable params: 0
----------------------------------------------------------------
Input size (MB): 0.01
Forward/backward pass size (MB): 0.97
Params size (MB): 33.89
Estimated Total Size (MB): 34.87
----------------------------------------------------------------
None
DC_Discriminator(
…
  (conv2): Conv2d(32, 64, kernel_size=(4, 4), stride=(2, 2), padding=(1, 1))
  (bn2): BatchNorm2d(64, eps=1e-05, momentum=0.1, affine=True, track_running_stats=True)
  (conv3): Conv2d(64, 128, kernel_size=(3, 3), stride=(2, 2), padding=(1, 1))
  (bn3): BatchNorm2d(128, eps=1e-05, momentum=0.1, affine=True, track_running_stats=True)
  (fc): Linear(in_features=2048, out_features=1, bias=True)
  (sigmoid): Sigmoid()
)
----------------------------------------------------------------
        Layer (type)               Output Shape         Param #
================================================================
            Conv2d-1           [-1, 32, 16, 16]           1,568
       BatchNorm2d-2           [-1, 32, 16, 16]              64
            Conv2d-3             [-1, 64, 8, 8]          32,832
       BatchNorm2d-4             [-1, 64, 8, 8]             128
            Conv2d-5            [-1, 128, 4, 4]          73,856
       BatchNorm2d-6            [-1, 128, 4, 4]             256
            Linear-7                    [-1, 1]           2,049
           Sigmoid-8                    [-1, 1]               0
================================================================
Total params: 110,753
Trainable params: 110,753
Non-trainable params: 0
----------------------------------------------------------------
Input size (MB): 0.01
Forward/backward pass size (MB): 0.22
Params size (MB): 0.42
Estimated Total Size (MB): 0.65
----------------------------------------------------------------
None
EPOCH 1/10: Disc train loss: 1.5105, Gen train loss: 1.1787 
…
